part-1/REINFORCE/reinforce_fetchreach.pt (torch, 281619 bytes, 7 tensors)

log_std f4 [4]
00000000: 5215 80bf 23fa 7fbf 656d 80bf 95e6 7ebf
-1.0006506 -0.99991053 -1.0033385 -0.9957059

net.0.weight f4 [256, 10]
00000000: 0e2c 8f3e d878 a73d 7b4e 82be 773a 923e
00000010: 051b 78be aac3 9d3e 5d40 a2bd a3b9 763e
00000020: e5c1 40be 0cd1 383d c796 1abe 1024 cbbc
00000030: 486f 37be a260 373e 5855 0cbd 047f 59be
00000040: abb3 70be 40ec d13c d082 7fbe a53f 803e
00000050: cea5 8ebd 40b5 16bd 6254 0cbe 2be3 a0be
00000060: c0ef a6bd 6c63 80bd 00de 02ba 0389 84be
00000070: 002a 133b 70ee 8bbd af74 a03d 602c 4a3e
00000080: 9e65 913d 0c2b 433d 6a69 063e ad8f 1bbd
00000090: 03d0 3c3d ef60 30be 123f d73d e127 a0be
000000a0: 51df 023d 503b 093e 3abb ddbd 39d5 c4bd
000000b0: d254 2b3d f3e0 03be 0685 853e 030b 37bd
000000c0: b1cd 9fbe 89cd 223e 415d 893e 27ac e9bc
000000d0: 6d20 0cbe 7066 9ebe 58f4 44bd 4606 33bd
000000e0: f4ab e1bd 75c9 923d 616f dabd 985d 0fbe
000000f0: 4bc4 733e be6e 813d 4dbe 19be 4508 7bbe
00000100: 9589 68be 8724 8f3e e01b 95be a3fc 823e
00000110: 8110 9abe e894 debc 02c4 4a3e 60a1 c3bc
00000120: 8967 78be b456 d33d 1069 213d c8d0 edbd
00000130: e8ce 363e 81a8 13be a6c7 78be c0ae b4bb
00000140: 97c4 103e 3799 173e 526f 7d3e d3ec 983e
00000150: 1b4e 553c 0714 8e3e 5278 153d 01d6 f23a
00000160: ecb7 26be a4e7 1e3e b6d1 173c 6ca6 9f3e
00000170: 2bc2 0cbe 9816 6a3d 3d05 8fbe 0e24 b43c
00000180: b53c 223d cdca cb3d 65d2 a3bd c41e 043e
00000190: 7965 9cbe 619a 773e bde5 323e c95f 99be
000001a0: 8557 d13c a678 2fbe dd13 87be a291 79bd
000001b0: f57f ee3c 8000 00be 70ec c2bc 180b 1e3d
000001c0: 700d 533d dac9 eebd 8285 063e 40ab 9dbc
000001d0: 5062 65be f289 6dbe fe10 67be f84f 173d
000001e0: 50a5 83be 3400 e83d 9e2b b7bd 0024 4bbe
000001f0: 98bf 60be cc7a 103e 9856 d2bd e2ce 68be
00000200: be53 4b3e 9ba7 3fbe 2ef1 193c f6ed d93d
00000210: fb7d 553e 6a18 453e 57b9 123c e39e 293b
00000220: def9 8bbe 550c d53d d175 263e 672f 12be
00000230: 246d 6abe bcd7 7bbe b073 a13c 9792 84be
00000240: b909 8d3e 889e 13bd c00f e13c 5843 b2bd
00000250: 4a85 443e 70f6 9d3d d909 07be 54c2 773d
00000260: 81dc 0f3e 47a7 37be 480a 8bbe ffaf 49be
00000270: 9643 0dbe e711 42bd 17d9 cd3d be86 e73d
00000280: 5825 8bbe a02a a23c 30ff 063d 4076 1bbd
00000290: a090 85bd 4bd6 99be 78a5 263e a88f 2ebd
000002a0: 769f 77be c0a6 d63c c80a 5bbe c00d 383d
000002b0: 08cb 08bd 91bf 88be 48ac f7bd 7292 2b3e
000002c0: 2eba 1ebe 90e3 f43d 48d3 a1bd a031 bf3c
000002d0: 9356 0c3e 48bf b3bd 58d7 533e 509b 10be
000002e0: fb4a 51be 373f 47bb b7c5 04be 915b 20bd
000002f0: 73bb 983e 603d 68be 417b 8f3e 8bb6 853d
00000300: d511 98be b5e9 a03d 7231 99bd 2109 dabd
00000310: aee2 31be 8805 393e b1fb 5a3e e81b 513e
00000320: 595b 7ebe f0e7 b53c 9a2f 8cbd cffd 863e
00000330: 9428 8ebd 4008 093c 3cc3 e23d 1835 0b3e
00000340: e40b a53d 5e6c 7f3e 1b00 95be f749 86be
00000350: ae0c 6c3e c0d6 7cbd 8824 cfbd 54f8 1a3e
00000360: 3e57 673e 906a a23c b0b2 b13c 951e 89be
00000370: 82a6 9a3c f297 6d3e d7de a03d 7bd2 90be
00000380: ae83 4cbe 3071 45bd fd05 7b3e 56b6 96be
00000390: d5bf 9b3e bbb0 973e d5b4 943e 5f64 e03b
000003a0: b3b7 42ba 543e 83be 1cf3 a53d 894f 523e
000003b0: 4be7 293d 801b 0cbe fedf ad3d bfce 6fbd
000003c0: 8853 7abd 3478 59be c0ca 73bd 7ee3 f2bd
000003d0: ae90 3f3e cb8c 973e f00e 85bc 4e45 8cbd
000003e0: 4806 b03d 3246 5f3e 52d2 a9bd 4a38 dbbd
000003f0: 203b 93bd d856 0f3d 5a99 01be 6065 063e
0.279633 0.08177346 -0.254505 0.2856023 -0.24229057 0.30813342 -0.079224326 0.24094252
-0.18823965 0.045121238 -0.1509658 -0.02479747 -0.17913544 0.17907956 -0.034261078 -0.21239859
-0.23506038 0.025625348 -0.24952245 0.25048557 -0.069652185 -0.036793947 -0.13704064 -0.31423315
-0.081511974 -0.06268963 -0.0004992187 -0.25885782 0.0022455454 -0.06832588 0.07834756 0.1974349
0.0709946 0.047648475 0.1312615 -0.037978817 0.046096813 -0.17224477 0.105100766 -0.31280425
0.031951252 0.13401532 -0.10826726 -0.096109815 0.041828938 -0.1287878 0.2607805 -0.044688236
-0.31211618 0.15898718 0.2682896 -0.028524471 -0.13684244 -0.3093753 -0.048084587 -0.043707155
-0.110191256 0.07167331 -0.10665775 -0.14000547 0.23805349 0.063199505 -0.15014 -0.24514873
-0.22708733 0.27957556 -0.2912283 0.25583372 -0.30090716 -0.027170613 0.19801334 -0.02388066
-0.24258246 0.10319272 0.039406836 -0.116120875 0.17852366 -0.14419748 -0.2429491 -0.005513996
0.14137493 0.1480454 0.24749497 0.29868183 0.01301911 0.27749655 0.0364917 0.0018526913
-0.16281098 0.15518051 0.009266308 0.31181657 -0.13745944 0.057150453 -0.27933684 0.021989848
0.039608676 0.099507906 -0.07999114 0.12902361 -0.30546167 0.24179985 0.1747045 -0.2995589
0.025554428 -0.17135867 -0.26382342 -0.060929902 0.029113749 -0.1250019 -0.023794383 0.0385848
0.051526487 -0.11659594 0.13136867 -0.019246697 -0.22400784 -0.23197153 -0.22565076 0.0369415
-0.2571206 0.11328164 -0.08943866 -0.19837952 -0.21948087 0.14109343 -0.10270423 -0.2273517
0.19856164 -0.1871628 0.009395881 0.106410906 0.20848839 0.19247594 0.008955321 0.0025882057
-0.2733907 0.10402743 0.16255881 -0.14275895 -0.22893196 -0.24594015 0.019708484 -0.2589309
0.2754648 -0.03603986 0.02747333 -0.08704251 0.1919147 0.0771302 -0.1318735 0.06048806
0.1404896 -0.17934905 -0.2715628 -0.19696043 -0.13795313 -0.047380354 0.10051172 0.11304997
-0.2717693 0.019795716 0.03295821 -0.03795457 -0.06521726 -0.30046305 0.16274059 -0.04261747
-0.24181923 0.02620256 -0.21390831 0.044934988 -0.03339675 -0.26708654 -0.12093407 0.16755083
-0.1550071 0.119574666 -0.07901627 0.023339093 0.137049 -0.087767184 0.20687616 -0.14121747
-0.20438759 -0.003040267 -0.12966047 -0.039149825 0.29830512 -0.22679663 0.28023723 0.06528958
-0.29701105 0.07857076 -0.07480134 -0.106462725 -0.17371628 0.18068516 0.21385075 0.20420802
-0.24839534 0.022205323 -0.06845017 0.26365516 -0.069413334 0.008363783 0.11072394 0.13594472
0.080589086 0.24943683 -0.29101643 -0.26228306 0.23051712 -0.06172824 -0.1011439 0.15133792
0.22591874 0.019826204 0.02169165 -0.26781145 0.018878225 0.23202494 0.07855003 -0.28285584
-0.19972107 -0.048203647 0.24514003 -0.29435986 0.30419794 0.29627022 0.29044214 0.0068479027
-0.0007427886 -0.2563349 0.0810301 0.20538153 0.041480344 -0.13682365 0.08489989 -0.058546778
-0.061114818 -0.2123726 -0.05951953 -0.11859797 0.18707535 0.29599604 -0.016242474 -0.06849156
0.08594948 0.21804121 -0.082920685 -0.10704096 -0.071890116 0.03499493 -0.12656155 0.13124609

net.0.bias f4 [256]
00000000: db87 dc3d c06c 56be 0481 223e 11ba 79be
00000010: 8c4d 043e a546 bcbc b756 88be c78a 96be
00000020: a533 fabd 1686 0c3e 62bd a43e 5e7f 25be
00000030: 6625 9dbe 40e0 6bbd c0db 97bb 5ccb 7d3e
00000040: 0cbb 103e 826e 52be 5993 3ebb 3d17 7d3d
00000050: 6dec 86be 66f5 22be 909f d03b 9d33 c9bd
00000060: 4eba 4cbe a3ee 4dbe 2007 5f3d 1889 f53d
00000070: cdf4 84be 456b 88be 806d d43d 3a8d eabd
00000080: cbae 2fbe 2b37 4cbe 780c 12bd 0b8b ab3d
00000090: cabd dc3d f9e9 ba3d 3c81 1d3e 2e66 fd3d
000000a0: 3af5 d83c c4a8 c33d b54f 493e 98dd 04be
000000b0: ff6a 81be dcd2 99be 19a1 98bd a666 473e
000000c0: 740c 40be 01a0 c0ba 63b6 82be cdee 0fbe
000000d0: f9e9 8bbe 19a2 34be 0e70 093e 1f8b 04be
000000e0: 21bc a53e 2056 87bd 0e9e 9a3d 395a 53be
000000f0: 8b45 6a3e 3e55 8ebe 1e2a d5bd 9274 5c3e
00000100: 2eb8 27be 41d2 173e 8254 64be a071 e5bd
00000110: db16 013e 22b6 8239 ec50 213e de83 9a3e
00000120: 5bb6 2d3e f0e0 c33d ff0c 493e 368a 44be
00000130: 0df6 aabc 6458 893e 2a12 16be 44e1 383e
00000140: cb64 2d3e d47d 18be c99a 4e3d 5511 16be
00000150: f209 b93c 55f5 213e bb77 333e 7825 933e
00000160: fcae 50be be67 3a3e f02b a2bb 6d68 763e
00000170: 5c47 98be 1ae4 45be 320c 73be 32a8 683d
00000180: 9830 38be 1f8b 693e a740 34bc 2e56 0b3e
00000190: fb78 8bbe 5872 a9bd 039b 73be 1f6f 79be
000001a0: 44f4 963e 2ad5 f2bd 7380 96be c949 053e
000001b0: 55ad a1be f0a8 8f3e 5178 26be 8677 c9bd
000001c0: df3a 6fbc bcf6 183c 71f0 14be a364 7a3e
000001d0: fcdb 87be 2636 42be a172 3b3e a4e9 b83d
000001e0: 9e3a 7abd db40 e9bd 5091 76bd e8c6 abbd
000001f0: cad2 8e3d a6bd 31be 259c 6cbd e7ae 433e
00000200: 0eda 5d3e 2b5c 5fbe d762 413e 00f8 3cbe
00000210: 0006 97bb 04d5 0c3d 3049 e33c f004 35be
00000220: e7f0 81be 2bc2 343e c975 edbb 25d6 7bbe
00000230: 79bf 1fbe b8d1 0a3d 6844 0f3e 6476 cebd
00000240: a083 2cbc 3b31 0abe d04d 3abe 4996 6e3e
00000250: b4cb 63be 99bb 0dbe df2b 13be 8d9d 723e
00000260: 2081 083c ae49 cf3c fd1b e6bd 13e6 66be
00000270: 5e5a 6abe 8ca3 a3bd 9261 233e 925e 40bd
00000280: b501 d13d aeb5 0c3e 2719 96be 5a43 983e
00000290: 88c3 47bd 3372 17be a426 4a3c 6bdf 83be
000002a0: 801e 183e 9501 54be 0edc 41be 2dea 3c3e
000002b0: 67bc 21be 2c58 c2bd b142 573e 8a97 333e
000002c0: abb7 56be fa16 8b3d 8edd 533e 105b ff3d
000002d0: 0516 8a3e 4843 e9bd 0bce c13d cfda c63d
000002e0: 895a 9abe e1b2 92be 0a84 443e 747f 1c3e
000002f0: 9401 573e c97f c0bd 8534 de3d bad7 973d
00000300: 9c2f febd 55f1 713e 0fb3 f0bc 59db 52be
00000310: 9aa3 3bbe b9d0 1abe 7787 c63b 4da2 8f3e
00000320: 8bc3 08be 0060 33bd e6c4 6ebe b5ae aa3c
00000330: a596 fbbb e040 ddbc 7f09 303e 32b8 82be
00000340: 18c9 323e 7f4c 8ebe a264 4c3e 9409 bcbc
00000350: bfd3 073e 4129 8b3e 5d95 213e 5901 0b3e
00000360: f7ba a13e 5175 07be 1537 f6bb 9a1c 753e
00000370: 8d7d 813e 982f a23e 4d66 be3d eee4 603e
00000380: 477a 42be a0b4 79be e0f0 633d 0b8d 753e
00000390: 0f46 4abe 434d 43be 78bf 603e 7bf8 763e
000003a0: e254 debd 250e 9b3e b7cb b03c 202a 913d
000003b0: 2091 033e 9c8c bf3c b847 fabd f674 a1be
000003c0: 9bab 9e3e 90e1 81be b044 c63c 8011 ba3d
000003d0: 10d7 093e 0281 553e 12a9 80be e5c9 60be
000003e0: f8ad 37bd 1804 ecbd 1def 9ebe 7bbe 85be
000003f0: 9f47 243e c664 733e 9497 71be 8a89 9abe
0.107681 -0.20939922 0.15869528 -0.24387385 0.12920207 -0.022982905 -0.26628658 -0.29402754
-0.12216882 0.13723025 0.32175738 -0.16161868 -0.30692595 -0.05758691 -0.0046343505 0.24784607
0.14133853 -0.20549968 -0.0029079525 0.06178974 -0.26352254 -0.15913925 0.0063666776 -0.098242976
-0.19992945 -0.20110564 0.054450154 0.11989039 -0.25968018 -0.2664434 0.10372448 -0.11452718
-0.17156522 -0.1994292 -0.035656422 0.0837613 0.10778387 0.09126658 0.1538133 0.12373005
0.02648412 0.09553674 0.19659312 -0.12975156 -0.25276944 -0.30043685 -0.07452602 0.19472751
-0.1875475 -0.0014696122 -0.25529775 -0.14055939 -0.27326944 -0.1763996 0.13421652 -0.12943695
0.32370093 -0.06608224 0.07549678 -0.20639886 0.22878091 -0.2779941 -0.10408424 0.21528843
-0.16378853 0.14826299 -0.22297862 -0.11203313 0.12606375 0.00024931232 0.15753525 0.30178732
0.16964094 0.09564388 0.19633864 -0.19193348 -0.02086928 0.2682525 -0.14655367 0.18054682
0.1693298 -0.1489175 0.050440583 -0.14655049 0.02258775 0.15816243 0.17526142 0.28739524
-0.20379251 0.18203637 -0.0049490854 0.24063273 -0.29741943 -0.19325295 -0.23735121 0.05680103
-0.17987287 0.22806977 -0.011001742 0.13607094 -0.27240738 -0.082737625 -0.23789601 -0.24358796
0.29483235 -0.11857064 -0.29394874 0.13016428 -0.31577554 0.28058577 -0.16256835 -0.098372504
-0.014601438 0.00933617 -0.14544846 0.24452452 -0.26535022 -0.18965968 0.18305446 0.090289384
-0.061091058 -0.11389323 -0.060197175 -0.08387548 0.069737986 -0.17357501 -0.0577661 0.19109689
0.21665213 -0.21812503 0.1888536 -0.1845398 -0.0046088696 0.034382835 0.02774486 -0.17677665
-0.25379106 0.17652194 -0.007246707 -0.24593408 -0.15600385 0.03389141 0.13990939 -0.10081175
-0.010529429 -0.13495342 -0.18193746 0.23299517 -0.22245675 -0.13841094 -0.14372204 0.23692913
0.008331567 0.025303688 -0.11235807 -0.22548704 -0.22886035 -0.079901785 0.15955189 -0.04696519
0.10205404 0.1374118 -0.29316065 0.29738885 -0.048770458 -0.14789657 0.012338314 -0.25756392
0.14855385 -0.20703728 -0.189316 0.18448706 -0.15794526 -0.09489474 0.21021535 0.17538276
-0.20968501 0.06791492 0.20689985 0.12468541 0.26969925 -0.11389786 0.09463128 0.09709703
-0.30147198 -0.286521 0.19190994 0.15282995 0.20996696 -0.09399373 0.10849861 0.074141935
-0.124114245 0.23627217 -0.029382257 -0.20591487 -0.18324128 -0.15118684 0.006058629 0.28053513
-0.13355844 -0.043792725 -0.23317298 0.02083526 -0.0076778703 -0.027008474 0.17191122 -0.25531155
0.17459524 -0.27792737 0.19960263 -0.022953786 0.13264368 0.27179912 0.15779634 0.13574733
0.31587955 -0.13228346 -0.0075138905 0.23936692 0.252911 0.31676936 0.09296856 0.2196233
-0.18991958 -0.24385309 0.05564964 0.23979585 -0.19753288 -0.19072442 0.2194804 0.24118225
-0.10856034 0.3028423 0.021581514 0.07088113 0.1284833 0.023382477 -0.122207105 -0.31534547
0.309903 -0.25367403 0.024202675 0.09085369 0.13460946 0.20849994 -0.2512899 -0.21952017
-0.044843644 -0.11524218 -0.31041804 -0.26121888 0.16042946 0.23768911 -0.23592979 -0.3018306

net.2.weight f4 [256, 256]
00000000: 28aa 49bd 809e e33a 3c1e 3c3d 6008 f73c
00000010: aab7 4e3d 1828 4cbc 10ae b0bb 58ba 1bbd
00000020: 8049 653c 1603 483d 2463 d03c 34a8 5abd
00000030: 2ce0 6cbd b0b3 a7bb de15 04bd fef2 213d
00000040: 76bc 3d3d 3cf5 ec3c 5878 7a3c 5046 fb3c
00000050: 2050 3f3c a0fa 233d 4435 a03c 40cf a4bb
00000060: 9c0d d2bc 44f0 c0bc 26f1 323d 3a86 68bd
00000070: 687e 1d3c d086 193d 82ff 45bd 2809 c0bc
00000080: 888f a9bc cc5d fa3c 902d 26bc 0000 a236
00000090: a4b3 8c3c 7ad9 78bd f82a ed3c 20ad 273d
000000a0: a866 513c cc69 0dbd 6038 2a3b 90c5 f33b
000000b0: de8d 643d e459 15bd a4c7 c73c d834 873c
000000c0: 269f 49bd 04b1 49bd 9a42 3ebd 489e 5fbc
000000d0: 601a 563d e8b4 2abd 706a ec3b e881 173c
000000e0: 20e1 bbbb 802c 65bc 8e0b 08bd c83e b73c
000000f0: c0f3 613c 8605 6bbd 36d0 593d 40e4 573b
00000100: 8e2e 78bd 0096 36ba 103e ad3b 18ef 7f3d
00000110: 0009 e439 e033 bc3b baac 733d 3c95 6dbd
00000120: 9036 22bc d627 72bd 407b 003b d817 b13c
00000130: 580a a43c 4065 833a 68f4 24bd da31 74bd
00000140: 80be 50bd 2426 c53c 9ef8 18bd 9c50 8d3c
00000150: 40cf 623c c0b1 923c 509a 70bc 1478 ed3c
00000160: 0286 52bd 289b 2d3c f20c 3a3d 686b c23c
00000170: 28fd 73bd f848 2dbd c855 993c a0f0 ba3c
00000180: ac79 153d 60a0 5cbc 1a29 59bd 9844 6e3d
00000190: 4027 50bc 3c7e ad3c 280a b83c 343f 3b3d
000001a0: f430 d6bc e89c 783d 1031 93bb ccb6 7d3d
000001b0: 9867 843c 80b1 66bb f4ce 323d 8c2c 9cbc
000001c0: 6048 963c 6a4f 6f3d 168d 4abd 6832 5cbd
000001d0: 80c5 7d3c 4a24 6c3d b4c1 06bd 806e 47bc
000001e0: 00d8 20b8 36e5 3dbd 3c71 ddbc 8c94 ff3c
000001f0: 68c6 babc 20f7 22bb 905c 2a3c 567f 013d
00000200: 86d2 21bd 2496 a63c c07b 8ebb 1062 a7bb
00000210: 64f1 71bd 983c debc 38d5 3ebc 1241 433d
00000220: bc24 4f3d a642 5dbd ec21 303d b65c 783d
00000230: 003e 0abc 004b e63a 786f 143d a807 3a3d
00000240: 6033 18bd c0f7 efbc 2046 46bc 6439 fdbc
00000250: 86d8 52bd a21c 043d 54a1 ebbc 74dd 54bd
00000260: c0d6 b4bb ce36 15bd 8c8d d2bc de61 3c3d
00000270: 50dc d6bb f4f9 be3c c02d 433c 6088 313b
00000280: a0c4 ed3b c2ee 7e3d c045 233b 4094 f8bb
00000290: 709f 87bc 1c27 b03c 48b6 7d3d c0e8 6ebd
000002a0: 2ce0 ec3c 1c37 e43c 1071 9f3b 486b 5f3d
000002b0: a0f8 31bb 6846 8cbc 50a8 19bc ac33 583d
000002c0: 14b7 7bbd e899 9f3c 5094 bcbb 0aa7 2a3d
000002d0: 7422 50bd e0ed 27bc 60a6 bebc 8afe 6c3d
000002e0: 68a9 2e3c f822 a1bc d673 6dbd 2074 4a3b
000002f0: be6d 00bd 3a8c 5a3d ccd4 d3bc b04a b53b
00000300: a4b4 a3bc 80df ca3a f0ad 023c d4c4 65bd
00000310: 1892 cbbc f409 78bd e006 22bd 5c65 7dbd
00000320: b6df 1ebd a4c4 d43c eac8 65bd c6d8 5bbd
00000330: 6085 7bbb 8a2b 343d 0011 86ba 540c ff3c
00000340: 403b 2fbd 6026 463b dc94 61bd 2868 423c
00000350: 04af a63c 40d6 1abb fe60 63bd 90af 563c
00000360: 4cec 483d cc9a 343d ce51 553d d415 35bd
00000370: f495 6cbd 2079 6fbd 144b 86bc f233 1c3d
00000380: b42a c53c 007e c8bb 08c1 d8bc e437 77bd
00000390: 684e 14bc 6064 dbbb e0fb debc aa07 133d
000003a0: 62fa 5c3d 86da 5fbd 229c 573d aa6a 0e3d
000003b0: 8ca6 653d 002a 133a f83a e4bc a8de 693c
000003c0: d0e3 78bc 3aec 6e3d 108c 1abc 86e6 10bd
000003d0: 4401 3fbd ea4c 213d 000a 1cbd 1a13 2ebd
000003e0: 50ba f93b 6e6a 703d b0b4 4e3d 0402 1f3d
000003f0: 0ecf 3bbd 7058 debc a80d c1bc b05f a43c
-0.04923454 0.0017365962 0.04592727 0.03015536 0.050468124 -0.012460731 -0.0053918436 -0.038019508
0.013994575 0.048831068 0.025437899 -0.053383067 -0.057830974 -0.005117856 -0.032247417 0.039538376
0.04632231 0.02892553 0.015287481 0.030673176 0.011676818 0.040033937 0.019556649 -0.005029589
-0.025641255 -0.023552068 0.04368701 -0.056768633 0.009612657 0.037482083 -0.048339374 -0.023441866
-0.020698324 0.030562304 -0.010142699 4.827976e-06 0.017175503 -0.060754277 0.028951153 0.04093659
0.012780823 -0.034524724 0.0025973544 0.007439323 0.055799358 -0.03646268 0.024387188 0.01650469
-0.04922404 -0.04924108 -0.046450235 -0.013648577 0.052271247 -0.041676432 0.007214837 0.009247281
-0.005733624 -0.01398766 -0.033214144 0.022368804 0.013791025 -0.057378314 0.05317708 0.0032942444
-0.060591273 -0.0006965101 0.0052869394 0.062483877 0.00043494254 0.0057434887 0.059490897 -0.05800365
-0.009900704 -0.05912002 0.0019604713 0.021617815 0.020024464 0.0010024682 -0.040272146 -0.059617855
-0.050962925 0.024066038 -0.037346475 0.017250352 0.013843358 0.017907023 -0.0146852285 0.028987922
-0.05139733 0.010596074 0.0454225 0.023732856 -0.0595676 -0.042305917 0.018717661 0.022819817
0.03649299 -0.013465971 -0.053017713 0.058170885 -0.01270467 0.021178357 0.02246578 0.045714572
-0.02614639 0.060696512 -0.0044919327 0.061941907 0.016162679 -0.0035201013 0.043654397 -0.01906421
0.018345058 0.058425345 -0.049450956 -0.05375901 0.015488982 0.057651795 -0.032899573 -0.012172341
-3.834814e-05 -0.04636117 -0.027031533 0.031198762 -0.022799686 -0.0024866536 0.010398045 0.031615578
-0.03950741 0.020335265 -0.0043482482 -0.0051081255 -0.0590681 -0.027128503 -0.011647515 0.047669478
0.050572142 -0.05401864 0.0430011 0.06063529 -0.0084376335 0.0017569959 0.036239117 0.045417458
-0.03715837 -0.029292941 -0.01210168 -0.030911155 -0.051476024 0.03225387 -0.02876345 -0.051969007
-0.0055187643 -0.03642922 -0.02570226 0.04599177 -0.006557025 0.023312546 0.011912763 0.0027089342
0.0072561055 0.062239416 0.00249134 -0.007586032 -0.016555518 0.021503024 0.061941415 -0.058327436
0.028915487 0.02785831 0.004865773 0.05454567 -0.0027156249 -0.017123416 -0.009378508 0.052783653
-0.061453894 0.019482568 -0.005754985 0.041663207 -0.050814107 -0.010249585 -0.023272693 0.057859935
0.010660507 -0.019669995 -0.057971798 0.003089197 -0.03135466 0.053356387 -0.025858305 0.005532585
-0.019983597 0.0015477985 0.00797604 -0.056095913 -0.024849936 -0.060556367 -0.039557338 -0.061864242
-0.038787566 0.025972672 -0.05609981 -0.053673528 -0.0038379058 0.043986835 -0.0010228455 0.031133808
-0.042781115 0.0030235276 -0.055073604 0.011865653 0.020347126 -0.0023626238 -0.05551242 0.013103381
0.049053475 0.04409294 0.05207997 -0.04421027 -0.057760194 -0.058465123 -0.016393222 0.038135476
0.024068214 -0.006118536 -0.026459232 -0.060356036 -0.009051897 -0.0066953152 -0.027219713 0.03589598
0.05394972 -0.05465176 0.052639134 0.03476969 0.056067035 0.00056138635 -0.02786015 0.014274277
-0.0151910335 0.058330752 -0.009432808 -0.035376094 -0.046632066 0.03937999 -0.038095474 -0.042498685
0.007621087 0.05869525 0.050465286 0.03882028 -0.04585176 -0.02714178 -0.023566082 0.020065159

net.2.bias f4 [256]
00000000: 3021 83bb fb32 0cbd 43d4 b4bc 38ee 053d
00000010: 2812 54bc d1fe 473c 8279 e2ba 7abc 49bd
00000020: 1eba 10bd b48f 4d3d 5049 b5bb d1c1 403d
00000030: 41b8 1bbd d200 0a3d e689 31bd e24b 16bd
00000040: 58f2 46bd 62c1 11bd 202d 063d 5f2a 4cbc
00000050: f6b8 1f3d f3ad c13c 9e42 6dbd 20fb 873c
00000060: e055 c4bc 242d 4ebd ecd6 65bd feec 363d
00000070: 7028 fd3b 3c47 69bd 28a9 a43a 086c 743c
00000080: 8d5b 6f3d 3a45 00bd 0533 8fbc 721e 24bd
00000090: 439f 7cbb 5cd4 083d 3ab9 ba3b 9a73 17bd
000000a0: 8fed 08bd 6a76 8e3c f819 433d 83a6 80bd
000000b0: 0017 753b 700a 483d 0575 883c 009f 2b3c
000000c0: 4210 4bbd 24c2 78bd 4b16 1cbd 5a8f 3b3c
000000d0: 471c 103d 8a9f 433d 62b8 903b 4400 51bd
000000e0: a006 543d 15e8 2e3d e9e4 d73c 222b 2f3d
000000f0: 108e fe3c b291 1f3d 87e7 b9bc 8d9f 00bd
00000100: 5245 22bd fb72 863c 46fb 52bd 60c5 c1bc
00000110: 08c9 5fbb b463 05bd a98e 1dbd 4ca4 2ebd
00000120: 1e45 31bd 3fb4 533d 4e89 fd3c 3080 d33c
00000130: 6088 ebbc b4ed 1dbd c6e2 66bd 740b 353d
00000140: cc99 ddbc 5413 723d d600 6fbd 6c4a fe3c
00000150: abe5 98bc 70a4 c13b 7ec7 5e3d 2aa3 5cbd
00000160: 213d 013d 98fd 2c3c 06dc 963c 498f 6f3d
00000170: b886 4f3c 7ee2 22bd c86c 8f3c 24c4 5cbd
00000180: 3e4a 03bd c31a fe3c 44ca 12bd b091 d53b
00000190: efc3 8c3d 6996 1cbd ce5d 8c3c b7a4 ed3c
000001a0: 4fdb a93c 242e 71bc 8849 803c 2c17 f73c
000001b0: fb8c 423d e74d 893c 9a92 95bc 00ff 9cba
000001c0: a040 d53b 1c9a 9bbc d057 0ebd a017 743d
000001d0: 6050 5ebd 2e1a 463d 3071 d4bc ecb4 b23c
000001e0: 7835 56bc 7c0d d33c cca2 8e3d c61a a53c
000001f0: 3e5a 41bd 55eb 113c 650f 143d 9549 2bbd
00000200: 12cb 193d 66af 993c 74a2 63bd d69a 7b3a
00000210: 30c9 edbc c95b 843c 6aee 66bd a0fb cb3c
00000220: 991e 80bd 40a3 e4bc 4946 843c d53a 413d
00000230: 8fb9 4c3d d0d2 d93c 0043 9d39 7b69 01bd
00000240: f646 11bd 3013 73bd 3d73 793d 77db 003d
00000250: 8b2c 5b3d 6b92 debc 2987 94bc a5b3 7bbd
00000260: d591 273d 005d 173b 7c80 edbc 30cd dfbb
00000270: ac3a d7bc 4c6c 5bbd 36b3 5d3d 5277 583d
00000280: af0f 453d b8d0 82bc 7490 94bc 0a72 c5bc
00000290: 1242 04bd 8277 0fbd 14d5 843c 90c9 a8bc
000002a0: 69e9 adbc 284f 96bb 16c9 ef3c bedc e43c
000002b0: d16b 01bc 8be9 493d 27fb 3e3c aa8f 46bd
000002c0: c0e3 163b a559 6d3d 79f6 28bd 77ce 593d
000002d0: 51cf 41bc 0020 1f3c 3234 bebb c890 7bbd
000002e0: 82b8 263d 0c2e 0b3d 8c27 b93c 9265 5bbd
000002f0: 9f22 613d 0a06 8a3c 6cf4 90bc 6c2b 473d
00000300: cc94 6c3d 90c2 a2bc 8de0 e43c 80c0 99ba
00000310: 71ef 99bb bf9c 56bd 472d 573d c024 12bd
00000320: 0865 533d 123b 503d 73ad cebc e678 ccbc
00000330: 08d6 1d3d 6d3a d73c 7bd9 ab3c 2777 d4bc
00000340: cdac 813d 1e12 48bd a2d3 bebc 7b79 3e3d
00000350: 9962 1c3c 9062 b43b d43f 47bd 84b3 38bd
00000360: d2e8 683d 4cb2 c2bc bea6 633c cddb 34bd
00000370: ddef 673d ae84 9fbc d606 183d ab34 07bd
00000380: 582b 32bd 7485 1cbd f2db 0c3d 2867 ffbc
00000390: a2ae 6a3d 16f8 57bd b9c5 903c 2c96 35bc
000003a0: 60cf ebbb b95e aebc 29e8 0ebd 2a50 2b3c
000003b0: 2ea4 d23c 6675 8cbc 990c be3c ddcc 993c
000003c0: 836f c13c 13b3 843d f273 bb3c 7d7e bebb
000003d0: 48bf b7bc 0d4f 243d e67d 113d 861d 3ebc
000003e0: ce18 93bc 57b1 873d 0c7a 5b3d 19f5 74bc
000003f0: d424 0c3d 6a1d 33bd ccd9 b03c d0f0 8fbc
-0.004001759 -0.034228306 -0.02207387 0.032697886 -0.012943782 0.012206749 -0.0017278644 -0.04925201
-0.035333745 0.050185874 -0.005532421 0.047059838 -0.038017515 0.03369219 -0.0433444 -0.03669346
-0.04857096 -0.035584815 0.03275788 -0.012461274 0.038994752 0.023642516 -0.05792486 0.016599238
-0.02396673 -0.05033602 -0.05611317 0.044659607 0.007725768 -0.0569527 0.001256262 0.014918335
0.05843692 -0.03131602 -0.017480383 -0.040068097 -0.0038547076 0.033405647 0.0056983503 -0.03697548
-0.03342968 0.017390449 0.047632188 -0.062817596 0.0037397742 0.04883808 0.016657362 0.01047492
-0.04957605 -0.060732022 -0.038107198 0.011447752 0.035183217 0.04775957 0.0044165114 -0.051025644
0.05176413 0.0427018 0.02635427 0.042765744 0.0310736 0.038957305 -0.022693409 -0.03140216
-0.03961689 0.016412249 -0.051509164 -0.023653686 -0.0034146924 -0.032565787 -0.03846613 -0.042637154
-0.043278806 0.051685568 0.030949261 0.02581796 -0.028751552 -0.03855677 -0.05636861 0.044200376
-0.027050875 0.059100464 -0.058350407 0.031041346 -0.018664202 0.005909495 0.05438947 -0.053866543
0.031552438 0.010558508 0.018415462 0.058486257 0.012666397 -0.03976678 0.017507926 -0.05389799
-0.032053225 0.03101862 -0.035837427 0.0065176114 0.06873309 -0.03822938 0.017134573 0.029009206
0.020734457 -0.014720473 0.015660062 0.030162416 0.04749773 0.01676078 -0.018258382 -0.0011977851
0.006507948 -0.018994384 -0.034751713 0.059592843 -0.05427587 0.04836481 -0.025932878 0.021814786
-0.013074271 0.025763266 0.06964645 0.020154368 -0.047205202 0.008906205 0.036147494 -0.04181822
0.03754718 0.018760394 -0.05557485 0.00095979625 -0.029026598 0.016157048 -0.056379713 0.024900258
-0.06255836 -0.027909875 0.016146796 0.047175247 0.04998165 0.026589781 0.00029995292 -0.031594735
-0.035468064 -0.05934447 0.060900915 0.031459298 0.053509276 -0.027169427 -0.018130856 -0.06145062
0.04091056 0.0023096204 -0.02899193 -0.00682988 -0.026273094 -0.053570077 0.054125987 0.052848168
0.04811066 -0.015968665 -0.018135287 -0.02410223 -0.032289572 -0.03502608 0.016214885 -0.020603925
-0.021229463 -0.004587073 0.02927069 0.02793729 -0.007899241 0.04929499 0.011656559 -0.048476852
0.0023023933 0.05794682 -0.04125068 0.053175416 -0.011829213 0.009712219 -0.005804562 -0.06141737
0.040703304 0.03397946 0.022601865 -0.053563662 0.054964658 0.016848583 -0.017694674 0.048625395
0.05775909 -0.019868165 0.027939105 -0.0011730343 -0.004697733 -0.05239558 0.052533414 -0.03567958
0.051610023 0.050837584 -0.025229191 -0.024959993 0.038534194 0.026272977 0.020977726 -0.025935723
0.06331787 -0.048845403 -0.023294274 0.04650257 0.009544992 0.0055049136 -0.048644856 -0.045093074
0.05686266 -0.02376666 0.013894735 -0.04415493 0.056625236 -0.019472446 0.037115894 -0.033009212
-0.043498367 -0.03821321 0.034389444 -0.031177118 0.05729545 -0.052726828 0.017672407 -0.011083167
-0.007196352 -0.021285402 -0.034889374 0.010456124 0.025713053 -0.017145824 0.023199366 0.018774444
0.023612743 0.06479468 0.022882435 -0.0058134184 -0.022430077 0.04011445 0.035520457 -0.011603719
-0.017956164 0.06625622 0.05358319 -0.014951014 0.03421481 -0.043729223 0.021588229 -0.017570883

net.4.weight f4 [4, 256]
00000000: 4877 ea3c 161f 343d a092 823d a826 fd3c
00000010: 8e5b 0a3d 6302 8d3c fb04 383c 36cb 43bd
00000020: a15d c5bc c136 36bd 1750 6a3d 111f 57bd
00000030: e7ae 33bd 807a da3a dcc4 97bc 6e45 29bd
00000040: 1c00 45bd 907d 1cbd f86d 033d f251 013d
00000050: e091 723b 01b3 803c 7244 3bbd cac8 013d
00000060: 68ce 30bc 1071 e03c a065 933b f5af d03c
00000070: 1e8c 3fbd 32b3 223d 7f2b 13bd d803 4c3c
00000080: 61ae 7c3d fc6c 4e3d faf2 4939 4c2a 76bc
00000090: b8af a63b f255 893d ffe9 62bd d80c bf3c
000000a0: 84e1 3b3d f003 3abd 1c8b 2dbd f688 d4bc
000000b0: a810 81bc a42d 12bd eefd 273d 64bc 19bc
000000c0: 18ed 25bd 1ed6 53bd 5af1 063d da21 813d
000000d0: e265 71bd 984b 143d 9a0a f73c b8e6 503d
000000e0: 8ca4 563d 17f1 9e3b 7fd7 233d 7a9a 523d
000000f0: ba32 05bd 9f81 923d 41b0 9bbb ca76 03bd
00000100: 0420 6b3d e416 9b3d 3098 c63b e22a 39bd
00000110: 4381 173d d082 8abb 3eb4 09bd a301 1ebd
00000120: b18d 373d dbb6 883d 4bd7 54bc 919c 443c
00000130: ecf0 72bd f085 8bbc 0099 95ba 7885 9d3d
00000140: b8dc 6cbc e0a0 163c c824 4f3c db3b c23c
00000150: cd57 403d e43e dd3c fc1f ac3c aace 763d
00000160: ead7 c8bc 50dc d43b 291e 16bc 535e a43c
00000170: b82a d1bc 50df 31bd 7844 243c 7002 3b3a
00000180: 1478 e1bc 4826 1dbd e020 fcbb bcb4 f23c
00000190: bc28 5c3d 387a 7f3d 534e 4fbd 92e1 83bc
000001a0: c21c dfbc 73c1 46bd 22dc 3f3d 60e9 4a3d
000001b0: 03b3 2b3d ce62 553c 4e21 aa3c 0000 98ba
000001c0: c05d 2ebb 68e0 1e3d c68f 273d f2ac 423c
000001d0: 3188 febc 8c38 ba3c 4936 9b3d 50a5 f53b
000001e0: 3cf6 603d a823 d63c 3dc0 323d 4a44 0abd
000001f0: 685f fcbc 886f fe3c 0381 66bd 6d63 0cbd
00000200: b429 c03c 8376 59bd b870 6fbc 124b 0b3c
00000210: 8c08 a0bc c8e3 313d b4c4 1cbd e4bd fabc
00000220: f8a0 393d f6f3 2fbd 5199 99ba dc36 313d
00000230: cfe5 6b3b a1bd 16bd a0ee af3b 2a26 7d37
00000240: 406e 07bc 2c0d 08bd afe2 00bd df94 a5bc
00000250: 9e10 abbb e296 58bd 6888 76bb 68fc 98bc
00000260: 915f 2fbd 5cf0 88bc 06f2 663c 68ff 683c
00000270: ee3e 40bd 2e1f 7abd abf2 27bd 11a4 dfbc
00000280: 0b8d 843d 3204 30bd cc18 8dbc 592c 263d
00000290: 79cc 903d 40f1 12bc 9aac 573d a029 6cbd
000002a0: f982 753d 90e8 44bd 8919 a13d 6b7e 403d
000002b0: caa5 8d3d 8e5a 5dbc 8e3f cfbc 8d9c 9b3d
000002c0: f0c0 0cbc 1134 913d c5ad 533d b7dd 4ebd
000002d0: 2bf8 23bd 70ac d2bc db98 c53c 103b 383d
000002e0: 122a 613d 3389 153c f41c 883b 9c32 86bc
000002f0: 2151 293d 1470 0ebd b0e6 ebbc 10f2 dcbc
00000300: e9da 153d b27e 1f3d 291b 1d3d 3033 db3b
00000310: 4b77 d53b 0ce9 993b a06d 0abb 80e8 583d
00000320: 3f95 ed3a fcd0 873c 6630 763d fed1 44bd
00000330: 3b5a f9bb f09f 843d 194c 753d 1745 edbc
00000340: c4cf 703a 68c6 8f3c e163 6dbd 23d1 9a3d
00000350: 7146 113d 4c2d d83c f8d6 14bc 800f e6ba
00000360: 084a 663d 6868 423c 7ef0 31bd 550b 9b3c
00000370: ec0e 3d3c 4f46 ab3c 9dc2 9c39 2a44 3dbd
00000380: 346c 1a3c f3fc ab3c 4268 51bd 0092 9eba
00000390: 57bb 2bbd f899 c03c 246c ca39 de78 433d
000003a0: f0ed b6bc 1453 4b3d 6541 b5bb e11f 883c
000003b0: 3e16 533d e970 56bd 65e8 5d3d f6c8 493c
000003c0: 9952 24bd c1d5 d33b e330 623d 7d38 dc3a
000003d0: 3f1e e1bc 3138 7d3c 37e6 ee39 9c42 533d
000003e0: a056 0abc b1e9 813d f86f 4fbc 2d82 07bd
000003f0: a0ee cc3b a2ed d23c 843f a23c d0d8 33bd
0.02862133 0.04397496 0.06375623 0.030902222 0.03377872 0.017213052 0.011231656 -0.04780122
-0.024092497 -0.04448581 0.057205286 -0.05251986 -0.04386797 0.0016668588 -0.018526487 -0.04132598
-0.048095807 -0.038205683 0.032087296 0.03157229 0.0037013218 0.015710356 -0.04571957 0.031685628
-0.010791399 0.027397662 0.0044981986 0.025474528 -0.046764486 0.039721675 -0.035930153 0.012452088
0.06168974 0.050396904 0.0001925937 -0.015024733 0.0050868653 0.06705846 -0.055398937 0.023321554
0.045869365 -0.04541391 -0.042368993 -0.025944214 -0.015755013 -0.035688058 0.04101365 -0.009383295
-0.040509313 -0.05171787 0.032945015 0.06305285 -0.058935054 0.036204904 0.030156422 0.05100128
0.052403018 0.0048505175 0.040000435 0.05141685 -0.03251908 0.071536295 -0.0047512357 -0.032095708
0.05740358 0.075727254 0.0060606226 -0.04520691 0.036988508 -0.00422702 -0.033619158 -0.03857578
0.04481286 0.06675502 -0.012990783 0.012000219 -0.059311792 -0.01703164 -0.0011413395 0.07691473
-0.01445692 0.009193629 0.012643047 0.023710182 0.046958733 0.027007528 0.021011345 0.060255684
-0.024517018 0.00649599 -0.009162464 0.020064509 -0.025533065 -0.043425858 0.01002609 0.0007133847
-0.027523078 -0.038366586 -0.0076943487 0.029627196 0.053749785 0.062372416 -0.050611805 -0.016098771
-0.027235392 -0.04852433 0.046840794 0.04953897 0.041918766 0.013024045 0.020767834 -0.001159668
-0.0026606172 0.03878823 0.040908597 0.011882054 -0.0310708 0.022732042 0.075787134 0.0074965134
0.054922327 0.02614005 0.043640364 -0.03375653 -0.030807212 0.031059042 -0.05627538 -0.034274507
0.023457386 -0.053091537 -0.014614277 0.008501785 -0.019535325 0.04343012 -0.03827353 -0.030608125
0.045319527 -0.04295727 -0.0011718665 0.04326521 0.003599513 -0.036801938 0.0053690225 1.5088861e-05
-0.008266032 -0.033215687 -0.031466182 -0.020212589 -0.005220487 -0.052878268 -0.0037617926 -0.018675044
-0.04281575 -0.016716175 0.014095789 0.01422105 -0.046935014 -0.06106489 -0.04100291 -0.027299913
0.06472214 -0.04297275 -0.017223738 0.040569637 0.0707025 -0.008968651 0.05265484 -0.057656884
0.05993936 -0.04807335 0.078661986 0.04699556 0.069163874 -0.013510359 -0.02529886 0.07598219
-0.008590922 0.07090009 0.05167939 -0.050504413 -0.040031593 -0.02571699 0.024120739 0.0449782
0.054971762 0.009126949 0.004153842 -0.016381554 0.041337136 -0.034774855 -0.028796524 -0.026970893
0.036585722 0.038939185 0.03835598 0.0066894516 0.006514465 0.004696971 -0.002112247 0.052956104
0.0018126144 0.016579144 0.06010475 -0.048051827 -0.0076096333 0.06475818 0.059887026 -0.028963609
0.0009186233 0.017550662 -0.05795658 0.07559421 0.03546757 0.026388787 -0.009084456 -0.0017552227
0.056222945 0.011865713 -0.04344224 0.018926302 0.011539202 0.02090755 0.00029899637 -0.046207584
0.009425212 0.020994639 -0.05112482 -0.0012097955 -0.041926708 0.023510918 0.00038609013 0.04772269
-0.022330254 0.049639776 -0.0055314773 0.016616764 0.051534884 -0.052353773 0.054176707 0.012315979
-0.040117834 0.0064646904 0.055222403 0.0016801503 -0.027480243 0.015455292 0.0004556642 0.051577196
-0.008443505 0.06343401 -0.012660973 -0.03308313 0.0062540323 0.025748078 0.019805677 -0.04390794

net.4.bias f4 [4]
00000000: 46e1 853d 8fde 653c e247 243c 4e0f 623d
0.06537108 0.014030113 0.010026904 0.055190377
